data.pth (torch, 5279 bytes, 6 tensors)

l1.weight f4 [8, 54]
0.17548807 -0.47773743 0.29203245 0.5761616 0.4176068 0.17794204 0.4118528 0.46373445
0.36451676 0.2886042 0.6038063 -0.29711318 0.2874922 -0.40082416 -0.27799097 -0.38120544
0.37588263 0.08820548 0.19005564 0.662057 -0.11035697 0.5703725 0.5020114 0.19099033
0.27325562 0.53542066 0.24838276 -0.48837462 0.11537349 -0.38953426 0.16162604 -0.42582086
0.33692884 0.31503132 -0.11228382 -0.4060972 0.03711264 0.35450852 0.46137747 0.3979711
0.15774754 0.121841356 -0.28519425 -0.24600613 0.02256019 -0.27368045 -0.20457584 0.08286071
0.49354157 0.08687739 -0.3864109 0.18699142 0.42662585 0.15812494 -0.022965753 -0.0777749
0.43630004 -0.12107038 0.24442975 -0.14042252 0.32518747 0.24698804 0.49027112 0.32830852
-0.0006450542 0.10235891 0.6422293 -0.09866086 -0.1662734 0.2881622 -0.2354319 -0.091180384
0.36420062 -0.23603053 0.0052484097 -0.10880687 -0.23629452 -0.5740582 0.5063617 -0.27638075
0.4641518 -0.0027526473 0.4195578 -0.19150525 -0.10353902 -0.016071692 0.049963173 0.45322296
0.11097913 0.24446811 0.31725925 0.5325539 0.36691597 0.44914705 -0.07345867 0.45021182
0.02523464 -0.02511572 0.3093078 0.15781379 -0.40912232 -0.21869126 0.16143934 0.5524504
0.1378002 0.26840192 0.4842034 0.17312692 -0.15251371 0.40283248 -0.3126388 -0.33816758
-0.26081625 0.5491706 -0.23926705 -0.26301882 -0.09076544 -0.36836648 -0.27250883 0.43552938
0.20035958 0.6949649 0.5470708 0.40775102 -0.23802409 0.59118474 0.20786457 -0.5104961
0.16382326 -0.51046634 -0.5105776 0.29408875 0.26531908 -0.34016475 0.3330418 0.69030815
0.276057 0.31054124 0.31727162 0.56534106 -0.21627107 -0.33175248 0.5170276 0.390512
0.18886255 -0.14128791 -0.23626602 -0.21383475 0.37282678 0.17462893 0.4885461 0.38398257
0.17031097 0.45870206 -0.036344998 0.035354313 0.16775718 0.41848916 0.23929201 0.12567072
-0.086457245 -0.017800733 -0.063786164 -0.17556173 -0.258342 -0.33150396 -0.47197095 0.6785836
-0.021339329 -0.35808155 0.010011494 -0.24437174 -0.19388042 0.54949427 0.33963966 0.6809829
-0.13037083 0.21493663 -0.13037436 0.64998883 0.40581194 -0.32428867 -0.18947375 -0.324239
-0.32466123 0.25648412 0.3789816 -0.21423897 0.5362947 -0.10812212 0.12603272 -0.19745578
0.49714956 0.78395814 -0.09060003 -0.21095355 -0.12561888 0.44970027 0.202627 -0.081288934
-0.008847245 -0.15234861 0.4859778 0.2631661 0.5945199 -0.0747305 0.34386522 0.0011496246
-0.3244321 -0.07113624 0.22159462 0.41692263 0.27016616 0.43964884 -0.15132532 -0.051561777
-0.20735075 0.31916574 0.5561299 -0.045549687 0.5069915 -0.35160047 0.28207755 0.2514099
0.40418363 0.37119812 0.3649291 0.06179399 0.5127654 0.30009055 0.40847307 -0.24507362
0.53445125 -0.3130807 0.14567369 0.4876536 -0.1414882 0.6328859 0.711953 0.3069301
-0.030900313 0.06708922 0.40232298 0.5193397 0.14753328 0.049845077 -0.2349124 0.47433028
0.020204984 0.43464926 0.6473433 -0.16895233 0.01929167 0.6118571 0.22431895 0.37220126
00000000: 25b3 333e 009a f4be 4785 953e 547f 133f
00000010: 8fd0 d53e 7036 363e 5fde d23e 9a6e ed3e
00000020: f1a1 ba3e eec3 933e 0d93 1a3f 381f 98be
00000030: 2d32 933e d338 cdbe d554 8ebe 5c2d c3be
00000040: b073 c03e 13a5 b43d f29d 423e 917c 293f
00000050: d602 e2bd ef03 123f d283 003f f892 433e
00000060: 29e8 8b3e 5411 093f 0d58 7e3e 3d0c fabe
00000070: f048 ec3d 0971 c7be 4c81 253e 3105 dabe
00000080: f081 ac3e c94b a13e 0ff5 e5bd f9eb cfbe
00000090: 6c03 183d 2482 b53e ab39 ec3e dec2 cb3e
000000a0: 9288 213e f687 f93d fb04 92be 08e9 7bbe
000000b0: 26d0 b83c d81f 8cbe 547c 51be e0b2 a93d
000000c0: 7bb1 fc3e c6ec b13d a6d7 c5be ae7a 3f3e
000000d0: b46e da3e 81eb 213e ad22 bcbc 7248 9fbd
000000e0: b862 df3e bff3 f7bd cb4b 7a3e ecca 0fbe
000000f0: f97e a63e 6fea 7c3e d104 fb3e 0e18 a83e
00000100: db18 29ba 8ca1 d13d 2469 243f b40e cabd
00000110: 9343 2abe ff89 933e 0f15 71be c8bc babd
00000120: 8178 ba3e fdb1 71be dafa ab3b 23d6 debd
00000130: 31f7 71be 7af5 12bf eca0 013f c781 8dbe
00000140: 4ea5 ed3e c265 34bb 48d0 d63e f419 44be
00000150: 440c d4bd c8a8 83bc 2fa6 4c3d d70c e83e
00000160: 0749 e33d d955 7a3e ce6f a23e 7455 083f
00000170: 69dc bb3e 9af6 e53e 8071 96bd 2a82 e63e
00000180: e0b8 ce3c 7cbf cdbc 985d 9e3e f099 213e
00000190: 7b78 d1be 9af0 5fbe 5b50 253e 646d 0d3f
000001a0: 7f1b 0d3e fa6b 893e 82e9 f73e 2f48 313e
000001b0: 8e2c 1cbe 0f40 ce3e 3112 a0be 4d24 adbe
000001c0: b589 85be 7296 0c3f 6c02 75be 67aa 86be
000001d0: 3be3 b9bd 889a bcbe 4786 8bbe b5fd de3e
000001e0: 102b 4d3e 38e9 313f d50c 0c3f bec4 d03e
000001f0: 96bc 73be e257 173f 73da 543e dfaf 02bf
00000200: 49c1 273e ecad 02bf 37b5 02bf cd92 963e
00000210: e7d7 873e 132a aebe 7484 aa3e 09b8 303f
00000220: 5857 8d3e 43ff 9e3e 6d71 a23e 31ba 103f
00000230: 2a76 5dbe 76db a9be ec5b 043f 30f1 c73e
00000240: 2f65 413e c7ad 10be b8ef 71be 7ff7 5abe
00000250: 27e3 be3e edd1 323e b722 fa3e 5d99 c43e
00000260: 0066 2e3e ffda ea3e 7ede 14bd afcf 103d
00000270: 8ac8 2b3e 3644 d63e f708 753e d3af 003e
00000280: 7f10 b1bd d8d2 91bc 52a2 82bd 74c6 33be
00000290: 6745 84be e3ba a9be 2da6 f1be a8b7 2d3f
000002a0: d1cf aebc 7756 b7be 4007 243c 963c 7abe
000002b0: 9788 46be a8ab 0c3f 40e5 ad3e e554 2e3f
000002c0: ee7f 05be 5918 5c3e db80 05be ab65 263f
000002d0: 95c6 cf3e 2a09 a6be 6805 42be a702 a6be
000002e0: ff39 a6be e351 833e e009 c23e 7661 5bbe
000002f0: 9c4a 093f 216f ddbd b90e 013e d931 4abe
00000300: 638a fe3e 7bb1 483f 828c b9bd 3504 58be
00000310: 3ca2 00be 1d3f e63e 747d 4f3e d07a a6bd
00000320: 09f4 10bc 4601 1cbe 15d2 f83e b5bd 863e
00000330: 7532 183f 4e0c 99bd 1a0f b03e 00af 963a
00000340: f71b a6be e1af 91bd b3e9 623e e276 d53e
00000350: 3853 8a3e a719 e13e 06f5 1abe 7132 53bd
00000360: c153 54be b169 a33e 875e 0e3f 4f92 3abd
00000370: 32ca 013f fa04 b4be 786c 903e ccb8 803e
00000380: 28f1 ce3e ae0d be3e fdd7 ba3e b21b 7d3d
00000390: 9844 033f 78a5 993e 6223 d13e 94f4 7abe
000003a0: ccd1 083f 1d4c a0be 7c2b 153e bcad f93e
000003b0: 48e2 10be cf04 223f 8d42 363f f125 9d3e
000003c0: a722 fdbc 1366 893d 47fd cd3e 72f3 043f
000003d0: f712 173e 5a2a 4c3d e08c 70be 6bdb f23e
000003e0: ec84 a53c 598a de3e 4ab8 253f d701 2dbe
000003f0: 9009 9e3c aba2 1c3f deb3 653e 2a91 be3e

l1.bias f4 [8]
0.9100849 0.23604882 0.5104947 0.32421282 0.3885619 0.6451376 0.5222714 1.1396456
00000000: 53fb 683f c8b6 713e c8af 023f 39ff a53e
00000010: 96f1 c63e bd27 253f 94b3 053f e8df 913f

l2.weight f4 [8, 8]
-0.4188379 0.36154494 1.1124343 1.2478352 0.307156 -0.7939678 1.0651584 0.39234084
1.0598292 -0.092372134 -0.438389 -1.109004 0.18593769 0.870622 -0.6418156 0.40583742
-0.40903303 -0.01248166 0.14879571 -0.03254892 -0.062423676 0.059765667 -0.12131257 0.018068612
0.6057811 0.97476584 0.70544994 1.3676172 0.074577495 0.65950835 0.9869454 -0.9182503
0.9259213 0.7993258 -0.18434815 -0.39708647 1.443864 -0.7610467 -0.5679988 0.13168214
1.1481849 0.31055927 -0.74367684 0.3815004 0.69998705 -0.37402013 0.4627172 -0.141391
0.99658346 -1.1547755 0.19656448 -0.4416185 -0.73684335 0.6414308 0.95169324 1.6692114
0.99588174 0.5330941 -0.65325063 0.056474105 0.8146545 -0.08279266 0.7367548 -0.2954312
00000000: ec71 d6be 6b1c b93e 3f64 8e3f 10b9 9f3f
00000010: 8d43 9d3e 7941 4bbf 1c57 883f e6e0 c83e
00000020: 7ca8 873f 9a2d bdbd 8674 e0be d8f3 8dbf
00000030: 7366 3e3e 15e1 5e3f 074e 24bf ecc9 cf3e
00000040: c76c d1be e07f 4cbc e75d 183e 0452 05bd
00000050: f8af 7fbd d8cc 743d ba72 f8bd a004 943c
00000060: 7814 1b3f 418a 793f 5e98 343f 150e af3f
00000070: 16bc 983d 8ad5 283f 74a8 7c3f 7412 6bbf
00000080: 2e09 6d3f 9ea0 4c3f c3c5 3cbe eb4e cbbe
00000090: 89d0 b83f f5d3 42bf 5f68 11bf afd7 063e
000000a0: b9f7 923f a001 9f3e 9b61 3ebf 0554 c33e
000000b0: 5a32 333f 917f bfbe 45e9 ec3e cdc8 10be
000000c0: 1820 7f3f afcf 93bf 3348 493e d21b e2be
000000d0: c4a1 3cbf cf34 243f 2ba2 733f b8a8 d53f
000000e0: 1bf2 7e3f db78 083f 6f3b 27bf 6451 673d
000000f0: 338d 503f 338f a9bd f69b 3c3f c242 97be

l2.bias f4 [8]
0.23761167 0.3296852 -0.31247458 0.026922153 0.4657243 0.29379693 0.8241715 0.13123375
00000000: 7950 733e 80cc a83e abfc 9fbe d98b dc3c
00000010: 6a73 ee3e 8d6c 963e e7fc 523f 2462 063e

l3.weight f4 [7, 8]
0.62000257 -0.67116517 -0.21625671 0.82794577 -1.0060117 -1.0760405 -1.2004286 -1.1187221
0.9370275 -0.9502344 -0.38967025 -1.4502493 0.5258185 -1.0383731 -0.098123774 -1.3837332
0.42110616 -1.1558944 0.28479335 -0.055891108 -1.4370307 -0.12965018 0.5111471 -0.47619432
-1.1728256 0.11389936 -0.083223 -0.90328383 0.44334346 0.4150889 0.23063913 -0.2511817
0.06214179 -1.4126465 -0.26200435 0.2143099 0.17822355 0.34406915 -0.8836786 0.032400772
-1.5941838 -0.11757219 0.17344075 0.18245602 0.6364461 0.47500697 -1.426084 0.3257797
-1.2511715 0.55757856 0.2789171 -1.1291351 -1.4264668 -1.071469 0.89934134 -1.8621938
00000000: 7db8 1e3f 7bd1 2bbf 6672 5dbe 41f4 533f
00000010: fec4 80bf b2bb 89bf a5a7 99bf 4932 8fbf
00000020: 09e1 6f3f 9042 73bf dc82 c7be c5a1 b9bf
00000030: 0b9c 063f 69e9 84bf 1ef5 c8bd 2b1e b1bf
00000040: 3a9b d73e 59f4 93bf 6fd0 913e 13ee 64bd
00000050: 9ff0 b7bf 04c3 04be 89da 023f becf f3be
00000060: 261f 96bf 1144 e93d d270 aabd 9c3d 67bf
00000070: eafd e23e 8886 d43e aa2c 6c3e e39a 80be
00000080: 6488 7e3d 9ad1 b4bf 6f25 86be 0e74 5b3e
00000090: 3c80 363e d529 b03e c338 62bf acb6 043d
000000a0: 370e ccbf b0c9 f0bd 749a 313e c0d5 3a3e
000000b0: 22ee 223f 1d34 f33e ec89 b6bf 99cc a63e
000000c0: 6326 a0bf 78bd 0e3f 39ce 8e3e 8087 90bf
000000d0: 7796 b6bf e525 89bf 3c3b 663f 5e5c eebf

l3.bias f4 [7]
-0.0580195 0.020856975 0.05046664 0.107584484 -0.25179666 -0.23489897 0.39646325
00000000: dba5 6dbd 3fdc aa3c 1cb6 4e3d 4155 dc3d
00000010: 7eeb 80be 5b89 70be 3bfd ca3e
